…
ocks share a pair of FP16 `d` / `dmin` while each block still carries its own 6-bit sub-scale and sub-min — each block calibrates itself far more precisely than Q4_0 could, while the metadata overhead grows only modestly. An outlier in one block pushes its own sub-scale; its 7 neighbors share the same super-block `d` but calibrate independently and stay unaffected.

Super-block layouts for each K-quant level (clearly listed in [ikawrakow's PR description](https://github.com/ggml-org/llama.cpp/pull/1684)):

| Level | Super-block layout | bits/weight |
|-------|-------------------|------------|
| Q2_K | 16 blocks × 16 weights = 256 | 2.5625 |
| Q3_K | 16 blocks × 16 weights = 256 | 3.4375 |
| Q4_K | 8 blocks × 32 weights = 256 | 4.5 |
| Q5_K | 8 blocks × 32 weights = 256 | 5.5 |
| Q6_K | 16 blocks × 16 weights = 256 | 6.5625 |

Super-block size is always 256 weights, but block granularity changes with bit width. The fewer bits, the finer the slicing — because outlier impact is more catastrophic and you need smaller quarantine zones.

The fractional bits (the `.5625` and `.4375`) are metadata amortized across the weights — sub-scales and sub-mins also take space. That's why Q4_K is 4.5 bits/weight, not exactly 4.
…
[Gemma 4](https://blog.google/technology/developers/gemma-4/) is Google's 2026 open-source AI model family. It comes in four sizes: E2B runs on phones, E4B on desktops, 26B on servers, 31B for maximum capability. The docs don't tell you how fast each one actually runs on your hardware.

This article puts all four variants on three machines into one table so you can decide without reading six separate articles.

---

## The Complete Comparison

### DGX Spark (GB10) — 128 GB, 273 GB/s

| Model | Type | Active Params | Quant | Runtime | tok/s | Model Size | Rating |
|-------|------|--------------|-------|---------|-------|-----------|--------|
| **26B-A4B** | MoE | 4B | NVFP4 | vLLM | **52** | 16.5 GB | ⭐⭐⭐⭐⭐ |
| **E4B** | PLE | 4B | NVFP4 | vLLM | **50** | 9.8 GB | ⭐⭐⭐⭐ |
| E4B | PLE | 4B | FP8 | vLLM | 36 | ~14 GB | ⭐⭐⭐ |
| E2B | PLE | 2B | Q4_K_M | Ollama | 53 | 7.2 GB | ⭐⭐⭐ |
| E4B | PLE | 4B | BF16 | vLLM | 19 | ~18 GB | ⭐⭐ |
| 31B Dense | Dense | 31B | NVFP4 | vLLM | **7** | 31 GB | ❌ |

### RTX 5090 — 32 GB GDDR7, 1792 GB/s

Rated by capability first — speed is a threshold, not a ranking. All four models clear the usability floor (~20 tok/s) on this hardware.

| Model | Quant | Runtime | tok/s | Active Params | Rating |
|-------|-------|---------|-------|---------------|--------|
| **31B Dense** | Q4_K_M | Ollama | 62 | 31B | ⭐⭐⭐⭐⭐ |
| **26B MoE** | Q4_K_M | Ollama | 186 | 4B | ⭐⭐⭐⭐⭐ |
| E4B | Q4_K_M | Ollama | 202 | 4B | ⭐⭐⭐⭐ |
| E2B | Q4_K_M | Ollama | 310 | 2B | ⭐⭐⭐ |

### MacBook Pro M1 Max — 32 GB, 400 GB/s

| Model | Quant | Runtime | tok/s | Notes |
|-------|-------|---------|-------|-------|
| E2B | Q4_K_M | Ollama | **81** | Fastest |
| 26B MoE | Q4_K_M | Ollama | 47 | Largest usable |
| 31B Dense | Q4_K_M | oMLX | 12.8 | Requires oMLX |
| 31B Dense | Q4_K_M | Ollama (ctx=2048) | 9 | Context cap required |
| 31B Dense | Q4_K_M | Ollama (default) | **1.5** | ❌ Swap death |

---

## How to Choose

### You have a DGX Spark

→ **26B-A4B NVFP4 + vLLM**. 52 tok/s, model uses only 16 GB, leaving 82 GB for KV cache. Best capability + speed combination.

Full deployment guide: [26B NVFP4 Complete Guide](/en/blog/dgx-spark-gemma4-26b-nvfp4-52-toks)

### You have an RTX 5090

→ Default pick: **31B Dense** (62 tok/s). On 5090's 1792 GB/s bus, the Dense model that's unusable elsewhere becomes the smartest option at a perfectly comfortable speed. No reason to sacrifice intelligence when the hardware can handle it.
…
1. **Between FP16 and Q4_K_M, you lose about 1.5% of quality to save 70% of the file.** That's an insane trade in your favor. This is why Q4_K_M is the default — it's where the curve is most favorable.
2. **Below Q4, quality drops off a cliff.** Q3 is meaningfully worse than Q4, and Q2 is meaningfully worse than Q3. The compression gains slow down while the quality losses accelerate.

---

## Memory cheat sheet

Here are updated formulas for estimating how much memory each level actually needs. The previous article used `B × 0.6` as a rough rule — that was the Q4 version. Here are all of them:

| Level | Memory formula | 7B example | 14B example | 30B example |
|-------|---------------|------------|-------------|-------------|
| FP16 | B × 2.0 | 14 GB | 28 GB | 60 GB |
| Q8_0 | B × 1.1 | 7.7 GB | 15.4 GB | 33 GB |
| Q6_K | B × 0.85 | 6.0 GB | 11.9 GB | 25.5 GB |
| Q5_K_M | B × 0.7 | 4.9 GB | 9.8 GB | 21 GB |
| **Q4_K_M** | **B × 0.6** | **4.2 GB** | **8.4 GB** | **18 GB** |
| Q3_K_M | B × 0.45 | 3.2 GB | 6.3 GB | 13.5 GB |
| Q2_K | B × 0.35 | 2.5 GB | 4.9 GB | 10.5 GB |

**Add about 1-2 GB for working memory** (the model also needs space to actually think while running — technically called the KV cache, but you don't need to know the term). Fun fact: that working memory can also be quantized. Techniques like Google's **TurboQuant** compress the KV cache down to 3-bit with nearly no quality loss — I benchmarked it on a DGX Spark in [this deep dive](/en/blog/turboquant-kv-cache-benchmark-gx10). But that's an advanced topic; for normal use, assume the working memory stays uncompressed.
…
